app/src/main/assets/2550_flip06_alliter.tflite (tflite, 2424 bytes, 5 tensors)

sequential/dense/BiasAdd/ReadVariableOp/resource f4 [8]
000000 35 9e 84 3f bd 76 04 40 9d fb 96 bf 21 66 f5 3f
       1.0360781 2.0697472 -1.1795536 1.9171792
000010 00 a3 b0 3f b2 ac 6a c0 24 bd 16 40 87 ac 4f c0
       1.3799744 -3.6667905 2.3552942 -3.2449052

sequential/dense_1/BiasAdd/ReadVariableOp/resource f4 [4]
000000 96 94 ca bf 0c cd fd bf 6e b0 eb 3f c4 f6 bf 3f
       -1.5826595 -1.98282 1.8413217 1.4997182

sequential/dense/MatMul f4 [8, 12]
000000 9b 80 b9 bf 77 17 c1 3f a4 de 1b 40 06 5e ed bd
       -1.4492372 1.5085286 2.435464 -0.11590199
000010 9c 3e e8 be 4c f7 93 3f c8 74 bd 3f 83 c4 91 bf
       -0.45360267 1.1559844 1.4801264 -1.1388096
000020 4e 18 67 be 34 15 3d 3d ee 0d 57 be 77 2c 98 bd
       -0.22567865 0.0461628 -0.21001408 -0.07430356
000030 4a 07 de 3f 8a 11 76 3e 2a 4e 52 bf 4c 9f 08 3f
       1.7345974 0.24030128 -0.8215052 0.5336807
000040 3b b9 3b 3f 81 a0 f4 3d 7d 5a 06 c0 b8 20 a7 bd
       0.73329514 0.11944676 -2.099273 -0.081605375
000050 1d 45 07 bd 95 55 6d bf c5 17 49 3e 38 08 50 3f
       -0.033024896 -0.9270871 0.19637974 0.8126254
000060 60 9a d5 3e 60 57 67 3f 0d a3 9e bf c9 77 07 3f
       0.4171934 0.903677 -1.2393509 0.5291715
000070 42 35 76 3f 37 9d 42 3f 4a 72 ac bf 81 5d 43 bf
       0.96175015 0.7602114 -1.3472378 -0.7631455
000080 3f a7 2a 3e 8f b6 34 be 29 09 91 3d 62 44 58 3e
       0.16665362 -0.17647766 0.07081825 0.21119836
000090 16 d7 c4 3d dc 75 37 40 2a 17 49 3e 98 68 21 40
       0.09611337 2.8665686 0.19637743 2.522009
0000a0 6c c5 df 3f de ab eb be 0d 61 3f 3f 6f 99 bf 3e
       1.7482123 -0.46029562 0.7475746 0.37421748
0000b0 f8 62 6e be 4c e7 3f 3d 00 f9 40 3d 48 8d ca bd
       -0.23279941 0.04685144 0.047112465 -0.098902285
0000c0 ca 4c 84 3e 99 07 45 c0 78 23 12 3e 3e 8b 33 3d
       0.25839835 -3.0785887 0.14271343 0.043833964
0000d0 34 87 4f 40 18 76 1b be 94 96 6d bf d2 b1 55 3e
       3.2426271 -0.15181768 -0.9280789 0.20868614
0000e0 b1 1c 34 bf e4 e0 e1 3c 90 cb 55 be 14 29 ab bc
       -0.7035628 0.027573057 -0.20878434 -0.020893611
0000f0 4f 86 61 3f 5a de 88 3d d5 3a ac 3f 9e 04 da bc
       0.88095564 0.06683035 1.3455454 -0.02661353
000100 47 1e e8 3e 77 20 23 3c 11 ff b2 3d 50 55 e8 bb
       0.453356 0.009956471 0.08740056 -0.007090248
000110 00 46 db bc ba 1f 6d 3e 3c 63 84 be f9 b7 c8 3e
       -0.026766777 0.23156634 -0.2585696 0.3920286
000120 8f 17 eb 3f 4d 29 2d 3f db 81 48 bf 42 1a 2e bf
       1.8366565 0.67641145 -0.78323144 -0.68008816
000130 2c 37 16 3e 6d 50 4e 3e 35 8a 31 c0 49 99 7a be
       0.14669484 0.20147868 -2.7740605 -0.24472536
000140 10 34 72 3f ae e2 42 3f 54 ed d1 3e 81 04 3f bf
       0.9461069 0.76127136 0.4100138 -0.7461625
000150 f8 80 cd 3d 26 9d 18 bd 52 f3 22 3f 3f cc 17 3d
       0.100343645 -0.037259243 0.6365253 0.03706002
000160 1c 25 90 3f c3 a4 e5 bd 3e 9f 5b 3d f2 a5 d1 3d
       1.1261325 -0.112130664 0.053618662 0.1023673
000170 a4 45 60 bd c4 71 0c bc a8 53 18 3e 58 27 f5 be
       -0.054753914 -0.008572046 0.14875662 -0.4788158

sequential/dense_1/MatMul f4 [4, 8]
000000 c3 d8 a4 3f bd 1d 6c 3f 09 b9 e2 bf 67 73 97 3f
       1.287865 0.92232877 -1.7712718 1.1832093
000010 a6 16 a5 3f 41 43 28 c0 cf 23 a4 3f b8 f1 3c c0
       1.2897537 -2.6291049 1.2823428 -2.9522533
000020 33 37 e1 3f b9 1e 5b 3f 04 65 28 c0 24 f7 b1 3f
       1.759497 0.85593754 -2.6311655 1.3903546
000030 b3 4e a4 3f 67 ff 35 c0 23 b3 b2 3f de 47 49 c0
       1.2836517 -2.8437135 1.3960918 -3.1450114
000040 93 88 e2 bf d5 d2 81 bf 5f c9 fb 3f bd ec a5 bf
       -1.7697929 -1.0142466 1.9670829 -1.2962872
000050 c7 80 bf bf 67 e8 2d 40 35 67 4d bf ff aa 4b 40
       -1.4961175 2.7173097 -0.80235606 3.1823118
000060 1d b9 d8 bf ee fc 59 bf 0c 8d 15 40 44 62 85 bf
       -1.6931492 -0.85151565 2.3367338 -1.0420613
000070 26 3b 2f bf 07 c4 1c 40 86 47 bc bf db cd 2f 40
       -0.6844963 2.4494646 -1.4709327 2.7469394

sequential/dense_2/MatMul f4 [1, 4]
000000 ba b8 bb c0 f3 4c ae c0 d7 58 ce 40 8e f6 a9 40
       -5.8662996 -5.446893 6.4483447 5.311347
